mlp_model/outputs/best_model.pth (torch, 222197 bytes, 19 tensors)

network.0.weight f4 [256, 40]
000000 cc 86 c5 3d ae 5d 10 3e 60 e8 bb bc d5 51 0d 3e
       0.09644851 0.14098236 -0.022937953 0.13800748
000010 4a e6 0e bd 48 7e 0b 3d b7 50 37 bd aa 0b d8 3d
       -0.03488759 0.034055978 -0.04475471 0.105491
000020 a1 ed f1 3d 80 96 bf bd 7b 6d 4c 3e 00 ba fc 3d
       0.11812902 -0.093548775 0.19963638 0.12340164
000030 d0 bd ee 3d b2 e8 1d 3d e1 23 99 3d 49 a5 11 bd
       0.116572976 0.038551994 0.074775465 -0.03555802
000040 dc 16 07 3e e3 75 fd 3c 23 d7 7b bd 28 2e 24 3d
       0.13192314 0.030940002 -0.061484467 0.04008308
000050 97 86 93 bd 6b a2 a8 bc 99 c8 71 bd c0 57 bd 3d
       -0.07203405 -0.02058526 -0.059029195 0.092452526
000060 50 b7 ce bd bb 49 b2 bd f3 d5 6e bd 72 14 68 bd
       -0.10093558 -0.08705469 -0.058309507 -0.056660123
000070 ee 68 74 bc 9d e9 0b be ba cb f7 3d 04 7a 34 be
       -0.014917595 -0.13663335 0.12099405 -0.1762467
000080 f6 21 cc 3d 5e a0 e2 3c 47 de 9a bd 3f b2 cb 3d
       0.09967415 0.02766436 -0.07561927 0.09946107
000090 95 61 55 3c a4 65 06 3e db f5 03 3b 20 3f 68 bd
       0.013023754 0.1312471 0.0020135555 -0.056700826
0000a0 e6 11 8e 3d ec 2a 34 bd 7a a9 09 3d 5e 8f 14 3e
       0.069370076 -0.043986246 0.03360889 0.14507815
0000b0 61 86 73 3d bb 29 bf bd a2 20 bc 3d ab 64 2d 3d
       0.059454326 -0.09334131 0.09185912 0.042332333
0000c0 07 31 77 3d c0 2c e8 bd d7 35 3c be b7 08 dd bd
       0.06034949 -0.113366604 -0.18379913 -0.10792678
0000d0 9a e5 1c be 44 34 e6 3d ee 04 45 3d f9 33 80 3d
       -0.15321961 0.112404376 0.048100404 0.06259913
0000e0 a4 fb 69 3d ec 03 22 bd 6a 15 01 3e 34 27 01 be
       0.05712475 -0.03955452 0.12605825 -0.12612611
0000f0 fe 8b 07 3c d6 f9 c1 bd 63 72 01 3d 63 70 99 bd
       0.008273123 -0.094714805 0.03160323 -0.07492139
000100 30 46 04 3d 1b 62 8e ba d8 7a f3 3d f2 89 a5 bd
       0.0322935 -0.0010862978 0.11888665 -0.080829516
000110 a1 40 9c bd 84 d1 cc bd 1d 9e ed 3d cc 22 8e 3d
       -0.076295145 -0.100008994 0.11602423 0.06940231
000120 1a 77 05 3e 3f 80 1f be 73 71 20 be d4 90 e6 bd
       0.13033715 -0.15576266 -0.15668277 -0.112580925
000130 ea db ce bd ef 1d 8c 3d f6 4a 6d 3d a0 3f 15 3e
       -0.10100539 0.06841647 0.057932816 0.14575052
000140 be 17 a2 bd 2d 06 ff bd df 37 ba 3d 4c 1d 3f bd
       -0.07914685 -0.1245235 0.09092688 -0.0466588
000150 3d 84 f3 3d d2 44 d1 bc 3c 53 b2 3d a6 ca e0 bd
       0.11890457 -0.025545511 0.08707282 -0.10976152
000160 cd e5 6e bd 73 a7 6a 3d 6d f4 d9 3c ed 41 8f bd
       -0.058324624 0.0572886 0.02660581 -0.06994996
000170 d4 00 f0 3d d9 f4 ae 3d 9b d8 00 be 3c dd a5 bd
       0.11718908 0.08542795 -0.12582628 -0.08098838
000180 99 1c 01 3e 9f 0a ff bc 42 6e 70 bd f1 c6 2a be
       0.12608565 -0.031132994 -0.0586989 -0.16677453
000190 9c 00 b8 bd 54 2b 75 3d 9d fd aa bc 26 01 f3 bd
       -0.08984491 0.059855774 -0.020872885 -0.118654534
0001a0 4c 6f 07 3c d6 e1 ca bd c4 52 fd bd 6f 70 ca bd
       0.008266281 -0.09906356 -0.12369302 -0.09884726
0001b0 df 11 10 be a7 19 cd bd cd a5 1f 3e b3 c1 0a 3d
       -0.14069317 -0.100146584 0.15590592 0.033876132
0001c0 9d 00 7a 3d 99 a6 33 be d9 4d b7 bd e5 a6 2b bd
       0.06103574 -0.1754402 -0.08950395 -0.04190721
0001d0 ed fe 95 3b 98 85 1d be a3 8c 8c bd 01 71 0b be
       0.0045775087 -0.15382993 -0.06862762 -0.13617326
0001e0 6d d6 d8 3c 58 19 b5 bd ab 96 39 bd fa a5 d0 bd
       0.026469434 -0.088427246 -0.045309704 -0.101879075
0001f0 19 67 16 be c5 df b6 bd d1 54 8e bd 9a 9f bf bd
       -0.14687766 -0.089293994 -0.06949771 -0.093566135
000200 d0 98 02 3e ed ad cc bc d9 f1 e2 3d 37 dc 73 3c
       0.12753606 -0.024985278 0.11081285 0.014884046
000210 b8 5f 30 be ae 7c eb 3d 56 19 7f bd 83 6f 32 bd
       -0.17224014 0.1149839 -0.06228002 -0.043563377
000220 bd 78 00 be 0d ec 50 be f5 ae 0e 3d f6 7b 33 bd
       -0.12546058 -0.20402546 0.03483482 -0.04381939
000230 47 91 3b 3d 2c 4a 0a be 9b 34 f2 3d bf 02 f5 bd
       0.045792844 -0.13504857 0.1182644 -0.119634144
000240 58 82 e5 bc 72 e1 03 3d 3c 1b 64 3d c7 63 e4 3d
       -0.028016254 0.032197423 0.055690035 0.111518435
000250 b0 78 09 3e 47 45 0b be ab 4f 63 3d be d8 80 bd
       0.13424945 -0.13600646 0.0554959 -0.0629134
000260 7b 95 ed ba c9 05 fc bd c1 ac 05 3e 8d d5 f1 bd
       -0.0018126214 -0.12305791 0.13054182 -0.1180831
000270 9c 10 8e 3d 7d af 96 3d 88 43 7e 3d c7 15 e3 bd
       0.06936762 0.073576905 0.06207612 -0.11088138
000280 e5 4b fa 3d 5f 50 93 3c fa f1 aa bb 0a ea 21 be
       0.12221507 0.01798266 -0.005216834 -0.15811935
000290 c0 10 a3 3d 3e c7 28 bd 7f dd d0 bd f3 ce 0a 3e
       0.07962179 -0.041205637 -0.10198497 0.13555507
0002a0 32 21 1e 3d 2a 16 9b bd b2 11 e4 bd 77 97 44 bd
       0.038605876 -0.07572587 -0.111361876 -0.04799601
0002b0 8a f0 cf 3d f1 b2 1b bd ea 22 e7 bd 24 0e 68 bd
       0.10153301 -0.03801245 -0.11285956 -0.05665411
0002c0 33 d6 0a be 8d c4 80 3d e1 06 a8 3d e1 f7 23 be
       -0.13558273 0.06287489 0.08204437 -0.16012527
0002d0 f3 b7 8b 3d 3d 06 9a 3d e3 07 1f 3d 80 aa b3 bd
       0.06822195 0.07520721 0.03882588 -0.08772755
0002e0 d9 49 c8 3d 9c e7 4c 3d 25 8d 79 3d 47 f6 85 bd
       0.0977971 0.050025567 0.06092562 -0.06541114
0002f0 80 05 51 bd 85 1f 2e 3c e7 70 00 bd c8 f1 4a bd
       -0.051030636 0.010627632 -0.031357672 -0.049546987
000300 c8 0e bd 3d f2 44 e3 3d d8 74 c6 bc 4a 2e 56 bd
       0.09231335 0.11097135 -0.024225637 -0.05229024
000310 18 4b 15 3c ba 22 a0 bc 47 48 e1 3c 3e 72 02 3d
       0.009112142 -0.019547809 0.027500285 0.03184723
000320 92 a0 0a be 17 2d e2 bb 97 b8 2a 3e 55 27 71 3d
       -0.13537815 -0.006902348 0.16671978 0.0588754
000330 58 5b d2 3c b7 00 ab bd 8d f6 32 bd 31 e6 16 be
       0.025678322 -0.08349746 -0.04369216 -0.14736249
000340 aa ec 3b bd fe 83 a9 3d df bc 20 3e 01 f3 27 3e
       -0.045879997 0.08277129 0.15697049 0.16401292
000350 3f 89 d9 bd 09 d3 f9 bd 96 5f 94 bc 66 ca f8 3d
       -0.10621881 -0.12198455 -0.018111985 0.121479794
000360 5a 84 87 bc e0 24 9f bb 59 44 a7 3d af 76 d4 3b
       -0.016542602 -0.0048566908 0.08167333 0.0064838747
000370 00 9a ce bd 5a cb b8 3d 30 43 ad bc 49 e0 a0 3c
       -0.10087967 0.09023161 -0.021150202 0.019638197
000380 bf 1d 0a be 4b 6a b0 3d bf 1e 0e 3e 6a 30 ef 3d
       -0.1348791 0.08614024 0.13878916 0.11679156
000390 ca d8 de bd 46 b3 1c be 54 69 a6 bd 37 5b dc 3d
       -0.10881193 -0.15302762 -0.081255585 0.10759585
0003a0 3f 6e 55 3d 5d af 15 3e 29 75 81 3d c3 68 2c 3d
       0.052107092 0.14617677 0.06321175 0.042092096
0003b0 cc 86 26 bb c1 06 e7 bd 3c d0 19 be ca 93 23 be
       -0.0025409935 -0.11280585 -0.15020841 -0.15974346
0003c0 ca ee d0 3d ea c5 d7 bd 4a 1a 8f bd 1a 80 a5 bd
       0.102017954 -0.10535796 -0.06987436 -0.08081074
0003d0 87 fd 87 bd c0 cc a3 bd 3f d6 17 be be a5 96 3d
       -0.066401534 -0.07998037 -0.14827822 0.073558316
0003e0 23 c7 20 bd 0c 74 a9 3d 2f c9 cb bd 0d 84 48 be
       -0.03925241 0.08274087 -0.09950482 -0.19581623
0003f0 f7 1e 86 bd f9 2b ad bd 74 a2 ad bd 92 44 26 be
       -0.06548875 -0.08455653 -0.08478251 -0.16237095

network.0.bias f4 [256]
000000 a0 72 d3 bc 16 04 a5 bb 99 07 87 3d e5 48 82 bd
       -0.025811493 -0.0050358875 0.06593246 -0.0636156
000010 96 ec 09 bd 93 78 20 be 8e 1c 66 bd bc c3 1e be
       -0.03367289 -0.15670995 -0.056179576 -0.15504354
000020 25 46 65 3d 3e 50 f9 bd 4e 1c a0 bd 2c d2 ea bd
       0.0559751 -0.12173508 -0.07817899 -0.11465868
000030 99 39 f6 3d d0 1a 3e bd b2 ae 0c 3e 91 e0 a0 bd
       0.12022705 -0.04641229 0.13738516 -0.07855333
000040 1b 44 f5 3d f5 5c fe bc b3 48 f3 bd f7 7f 07 3e
       0.11975881 -0.031050185 -0.11879101 0.13232408
000050 86 58 dc bd 65 74 be bd 08 71 b1 3d a7 fb 71 bc
       -0.10759072 -0.09299544 0.08664137 -0.014769471
000060 60 d8 1a bb 49 8f 20 3e 2f 75 00 be 72 bc 69 bd
       -0.0023627505 0.15679659 -0.12544702 -0.05706448
000070 d7 c4 83 3d 07 60 f9 bc eb af 2a 3b b3 f0 5a bd
       0.064340286 -0.030441297 0.0026044797 -0.053452205
000080 c3 07 c8 bc e4 53 01 3e 17 c5 f0 bc 18 60 82 3d
       -0.024417764 0.12629658 -0.029390855 0.06365985
000090 37 3f f4 3d 03 aa fa 3d f5 ac 99 3d 75 70 de 3d
       0.1192612 0.122394584 0.07503692 0.10861293
0000a0 4b e4 27 bd 6d 74 4f 3c 6d f0 8a bd 4e 09 1d be
       -0.0409892 0.012662035 -0.06784139 -0.1533558
0000b0 fc 46 08 3e f2 e0 1a be 8a 12 cc bd f2 9d 66 bd
       0.13308328 -0.15124872 -0.099644735 -0.056302972
0000c0 98 20 14 be 6b 79 fb bd d7 5c a9 bd a3 f5 98 3c
       -0.14465559 -0.12279018 -0.08269661 0.018671816
0000d0 f1 85 0d be 56 96 e8 bd 2c 5d bd bd ea a1 f3 bd
       -0.13820626 -0.11356799 -0.09246287 -0.11896117
0000e0 3c 1f 18 3d c3 e2 af 3b 50 10 0e 3d b8 0c 12 3e
       0.037139162 0.0053676083 0.034683526 0.14262664
0000f0 9c db 8d bd 01 df 72 bd 9b e5 4e 3d 44 ff 0d 3e
       -0.06926653 -0.059294704 0.050511938 0.13866907
000100 5a 5b 4e 3d 87 47 5d bc 52 39 52 3d aa 74 1f be
       0.05038009 -0.013505823 0.051324196 -0.15571848
000110 1d 7e dd bd 8a 20 88 bd e7 96 12 be e9 8b f4 bd
       -0.1081507 -0.06646831 -0.14315377 -0.11940748
000120 c3 f8 f8 bd dd d1 39 3d 4c 16 44 3d cb e0 79 bb
       -0.121568225 0.045366157 0.047872826 -0.0038128372
000130 1e 05 15 bd eb 20 8c 3b b9 92 c3 3d 22 d8 f3 bd
       -0.036381833 0.004276385 0.095494695 -0.119064584
000140 7a f0 e5 3d 06 d4 8c 3d b1 bd 61 bd 8e 75 e3 3d
       0.11227508 0.06876378 -0.055112544 0.11106406
000150 17 fe a8 b8 c3 72 94 bd 4b e9 11 3e 1c 64 3f 3d
       -8.058192e-05 -0.072484516 0.1424915 0.04672633
000160 1b 6a f4 3d 42 c9 2f bd bd b4 0a be 7c dc 01 3e
       0.119343005 -0.042916544 -0.13545509 0.12681764
000170 2d 3b 16 3c ae ca 99 3d e5 d5 27 bd 43 27 99 3d
       0.009169382 0.07509361 -0.04097547 0.07478192
000180 fa f5 ff bd 88 0a b5 3b bc ef f5 3d eb dd 2d bd
       -0.12498088 0.005524937 0.12008616 -0.042447966
000190 55 f9 0a 3e 91 53 6e 3d 4c a5 9f 3d cb ef 1f 3e
       0.13571675 0.058185164 0.077952 0.15618818
0001a0 ff 7b 1d bd 45 7b 16 bd 8b 8d cb 3d eb f2 a3 bd
       -0.03844833 -0.036738653 0.099391066 -0.08005317
0001b0 7d d4 ee bd 08 37 d3 3d cd 4d 0d be 0e 60 99 bd
       -0.11661623 0.10313231 -0.1379921 -0.07489024
0001c0 5f d8 1c 3d c7 ce be 3c 0e 5d c4 bd e6 cc 23 bd
       0.038292285 0.023291958 -0.09588061 -0.03999033
0001d0 20 e5 cf 3d 74 ad d1 bd 1a b7 b9 3d df 2d 8b bc
       0.10151124 -0.10238162 0.09068127 -0.016989646
0001e0 3c 28 68 bd 81 3a 1a be 0f a0 29 bd 16 32 05 3e
       -0.056678995 -0.1506138 -0.04141241 0.13007388
0001f0 f2 6a b1 bd 60 72 00 be 88 df 49 bc 41 50 e5 3d
       -0.08662976 -0.1254363 -0.01232136 0.11196948
000200 bb 86 2f bd 77 bb 1e 3e 6c ec 1b 3e 56 73 14 3e
       -0.0428531 0.155012 0.15226907 0.14497122
000210 74 47 b9 bd c4 6a e6 bd 80 bf 17 be cb 49 fc bc
       -0.09046832 -0.11250833 -0.14819145 -0.030796906
000220 81 da d2 bd d4 d7 96 3d 7b 82 68 3c 71 6f 00 3e
       -0.102955826 0.07365385 0.014191265 0.12542512
000230 17 34 16 be 8a 07 08 be c7 8a f1 bc 00 85 2a 3d
       -0.14668308 -0.13284126 -0.02948512 0.041630745
000240 1a 44 08 3e 3a 12 58 bc f0 4e 0a 3e f0 02 30 bd
       0.13307229 -0.013187939 0.13506675 -0.04297155
000250 15 68 b6 bc 2d 22 79 bd 2f a6 89 bd b5 58 75 bd
       -0.022266427 -0.06082361 -0.0672115 -0.05989905
000260 c3 ed 0b be ac 3f 9f bc 95 41 5a bd f0 b4 d1 bd
       -0.13664918 -0.01943954 -0.0532852 -0.10239589
000270 00 27 f0 bd 86 1b 1c be 1f f6 10 bd ac cc 03 be
       -0.11726189 -0.15244874 -0.03539097 -0.12871045
000280 01 7b 11 3e 58 2d 2e bd ee 71 2e 3d 1a 16 e8 bd
       0.14207079 -0.042523712 0.04258912 -0.113323405
000290 43 4d 84 3c db 1a 18 be 60 ab 91 3d b7 d6 98 3d
       0.016150123 -0.14853995 0.07112765 0.074628286
0002a0 5c 4c 1d be 3a 1e 8d 3d 52 d8 a5 3c 9f 48 ca bd
       -0.1536116 0.06890531 0.020244751 -0.098771326
0002b0 3e 3f 94 bd 82 20 1f 3e 25 8e a8 bd f7 b3 0d 3e
       -0.07238625 0.15539744 -0.08230237 0.13838182
0002c0 71 27 02 3d 13 7a 94 3d b1 19 a3 bd 8c 82 52 3d
       0.031775896 0.07249846 -0.079638846 0.05139403
0002d0 19 6b 0b 3d a2 17 01 3e 70 12 20 be 23 63 6b bd
       0.034037683 0.12606671 -0.15632033 -0.05746759
0002e0 ed 85 7d 3b c2 70 e8 bd c9 e7 dc 3c 12 b5 d0 3d
       0.0038684562 -0.11349632 0.026965993 0.101907864
0002f0 5c 1f c3 3d e6 e0 a6 bd 84 d1 82 3d 1c 95 eb bd
       0.09527466 -0.08148365 0.06387618 -0.1150305
000300 e8 51 c9 3d a6 49 04 be 61 c2 12 be cf 4f 60 3d
       0.098300755 -0.1291872 -0.14331962 0.05476361
000310 8f 2e 75 bc 44 7f 1f 3d 52 a4 16 3e ec 21 1b 3e
       -0.014964714 0.03893973 0.1471112 0.15149659
000320 a0 95 b6 3d 84 e8 12 be 5c 58 c7 bc 82 f2 8c 3c
       0.089152575 -0.1434651 -0.024334125 0.01720548
000330 82 8d 1d be d3 6f 07 3e 66 77 d4 3d 77 ba 95 bd
       -0.15386012 0.13226251 0.10374336 -0.07310956
000340 43 df 06 bd d8 d6 bb bd 23 2a 79 3d ad 6d df 3c
       -0.032927763 -0.091718376 0.0608312 0.027273977
000350 80 c3 60 bd 9d e5 ac 3d fe dc 0b bd 7a 98 8b 3c
       -0.054873943 0.08442233 -0.0341463 0.01704048
000360 d2 40 e0 3d e9 51 98 bd 64 52 15 be f8 de ae 3d
       0.109498635 -0.07437498 -0.14582211 0.08538622
000370 fd 7c d3 bd d6 a5 74 3d 57 8a 42 bd 45 4f d9 3d
       -0.10326574 0.059728466 -0.047495212 0.106108226
000380 f8 ae c5 bb 28 8c 93 bd c9 5d e4 bd 2f b3 d9 3d
       -0.006032821 -0.07204467 -0.111507006 0.1062988
000390 31 a0 ca bd 07 7f 37 3d 3f 8b f7 3d 90 0c 02 be
       -0.09893835 0.044798877 0.12087106 -0.12700105
0003a0 82 dd 07 be e5 e1 83 3c 9a 26 7e bd aa ee ed bd
       -0.13268092 0.016098926 -0.062048532 -0.11617787
0003b0 91 23 d6 3d c9 92 16 be c3 b5 93 bd b9 76 06 be
       0.104560025 -0.14704432 -0.07212403 -0.13131227
0003c0 8c 26 2b 3d 73 1a 61 3c 93 12 87 3d 24 a3 87 3d
       0.041784808 0.013739216 0.065953396 0.066229135
0003d0 b6 fe 0f ba f0 93 42 bd d2 36 0f 3e 75 9a d9 3b
       -0.0005492972 -0.047504365 0.13985756 0.006640727
0003e0 c1 4d 1a 3d 6a 54 05 be 18 95 1e be 4a 15 9e bd
       0.03767181 -0.13020483 -0.15486562 -0.07718904
0003f0 6e a5 a9 bd 0d c8 3b 3d dd d5 8f bd aa af 86 3c
       -0.08283506 0.04584508 -0.07023213 0.016441185

network.1.weight f4 [256]
000000 47 8e 7f 3f b4 63 7a 3f 59 12 77 3f f6 00 7b 3f
       0.99826473 0.97808385 0.9651237 0.9804834
000010 b7 83 7b 3f d4 43 7d 3f 67 20 80 3f 75 94 78 3f
       0.98247856 0.9893162 1.0009888 0.9710153
000020 f6 ae 75 3f f5 14 7b 3f 61 a3 7c 3f f0 1c 7e 3f
       0.95970094 0.9807885 0.98686796 0.99262905
000030 b2 6f 78 3f 42 22 80 3f 7c 27 85 3f 05 7e 81 3f
       0.97045434 1.0010455 1.0402675 1.0116583
000040 0d 34 7d 3f c1 0e 80 3f fb 50 7d 3f c5 e6 7e 3f
       0.9890755 1.0004503 0.9895169 0.99570876
000050 65 6b 77 3f b9 57 77 3f c2 5b 79 3f 0c c4 7c 3f
       0.96648246 0.9661823 0.97405636 0.98736644
000060 10 15 81 3f 37 9f 81 3f 4f 62 86 3f 3b 1e 88 3f
       1.0084553 1.0126714 1.0498751 1.0634226
000070 78 14 7b 3f cb 64 78 3f 64 88 7a 3f 48 10 76 3f
       0.9807811 0.970288 0.97864366 0.96118593
000080 6a 7e 87 3f 85 a7 82 3f 30 50 74 3f 28 a8 78 3f
       1.0585454 1.0207373 0.95434856 0.97131586
000090 e9 a6 7d 3f b5 85 78 3f 5e 28 7a 3f bb 5c 86 3f
       0.9908281 0.9707902 0.97717845 1.0497049
0000a0 7f 3b 7e 3f 4e ff 7c 3f d1 57 7e 3f c2 33 80 3f
       0.99309534 0.98827064 0.9935275 1.0015795
0000b0 25 43 7e 3f b3 a9 79 3f 85 4f 7a 3f 25 60 82 3f
       0.99321204 0.97524565 0.9777759 1.0185591
0000c0 9e c6 80 3f 67 b5 7c 3f 91 10 75 3f 0a 86 7a 3f
       1.0060613 0.987143 0.95728403 0.9786078
0000d0 7d 90 80 3f 6c 1c 81 3f f6 2c 76 3f 7a 28 80 3f
       1.0044094 1.0086799 0.96162355 1.0012352
0000e0 1a 35 82 3f d2 30 7b 3f 81 7e 7d 3f fb 55 7c 3f
       1.0172455 0.9812137 0.99021155 0.98568696
0000f0 22 e8 7a 3f 6a 3f 85 3f 0e 30 84 3f e7 1c 80 3f
       0.98010457 1.0409977 1.0327165 1.000882
000100 01 e8 81 3f 82 e7 7b 3f 05 fc 7a 3f 0e 31 7f 3f
       1.0148927 0.9840013 0.980408 0.99684227
000110 1f 7a 88 3f 37 29 81 3f a0 fd 7c 3f 1c 8f 7a 3f
       1.0662268 1.0090703 0.988245 0.9787462
000120 01 77 78 3f 17 45 7d 3f 10 85 7b 3f a1 f1 81 3f
       0.97056586 0.9893355 0.9824991 1.0151864
000130 c9 b4 83 3f 59 57 7b 3f de e6 83 3f 7a 8e 7f 3f
       1.0289546 0.98180157 1.030483 0.99826777
000140 bf fb 86 3f 60 e1 78 3f a7 e6 7f 3f f4 58 82 3f
       1.0545577 0.97218895 0.9996132 1.0183396
000150 db 06 7c 3f d4 3f 7e 3f b0 1a 74 3f 98 e2 80 3f
       0.9844796 0.99316144 0.9535322 1.0069151
000160 1a e8 7f 3f 14 46 76 3f 9b 46 7d 3f 79 23 78 3f
       0.99963534 0.9620068 0.9893586 0.96929127
000170 db f4 77 3f 10 20 78 3f be f3 7a 3f cf 95 80 3f
       0.96857995 0.96923923 0.9802817 1.0045718
000180 a3 1a 8a 3f e3 a6 83 3f 4c 18 8a 3f 6c 08 7b 3f
       1.0789379 1.0285305 1.0788665 0.98059726
000190 91 70 7b 3f d4 13 7c 3f e5 7a 82 3f 27 2f 82 3f
       0.9821864 0.98467755 1.0193754 1.017064
0001a0 5c d9 7a 3f 4a dc 7b 3f ea 19 85 3f fd 3f 7b 3f
       0.97987914 0.9838301 1.0398533 0.98144513
0001b0 e9 e0 80 3f 50 dc 83 3f 0f e0 84 3f 68 1b 82 3f
       1.0068637 1.0301609 1.0380877 1.0164614
0001c0 94 4e 78 3f 15 8d 81 3f 34 ba 76 3f 58 16 82 3f
       0.969949 1.012118 0.96377873 1.0163069
0001d0 33 c7 7a 3f 31 9a 7d 3f 16 9c 7c 3f cf 33 85 3f
       0.97960204 0.990634 0.9867567 1.0406436
0001e0 20 ea 82 3f 93 05 82 3f 63 c8 7b 3f 1a 68 80 3f
       1.0227699 1.0157951 0.9835264 1.0031769
0001f0 e2 e0 7c 3f 9a ce 80 3f fa 66 7c 3f 73 9b 79 3f
       0.98780644 1.006305 0.9859463 0.9750282
000200 53 8a 7f 3f ef 90 82 3f 8d 28 7d 3f 4f 5a 80 3f
       0.9982044 1.020048 0.9889 1.002756
000210 98 4e 85 3f d5 5d 7b 3f a2 89 80 3f 8f 22 83 3f
       1.041461 0.9819005 1.0042002 1.0244921
000220 74 c4 77 3f 16 1d 7d 3f fb b5 77 3f 6a ff 81 3f
       0.9678414 0.98872507 0.96762055 1.0156071
000230 a7 10 80 3f 23 32 7c 3f cd ab 82 3f 4f 61 7d 3f
       1.0005082 0.98514 1.020868 0.98976606
000240 7a f0 76 3f 65 8f 7e 3f 47 34 87 3f d8 7f 86 3f
       0.9646069 0.9943755 1.0562829 1.0507765
000250 41 bd 79 3f c4 e3 7d 3f 3a 7b 7b 3f 3a 1c 7e 3f
       0.97554404 0.9917567 0.98234904 0.9926182
000260 96 35 81 3f 39 87 7b 3f 67 c5 7a 3f 05 b2 81 3f
       1.0094478 0.9825321 0.9795746 1.0132452
000270 49 eb 7b 3f d5 d4 71 3f a6 ec 77 3f 86 a5 80 3f
       0.9840589 0.9446538 0.9684547 1.0050514
000280 40 09 7b 3f 29 84 82 3f 2b dd 7e 3f 2d e2 7a 3f
       0.9806099 1.0196582 0.99556226 0.98001367
000290 b0 e3 81 3f 97 19 78 3f 23 b0 75 3f f0 bd 7b 3f
       1.014761 0.96914047 0.9597189 0.98336697
0002a0 d6 16 81 3f 27 8f 7a 3f 34 f3 7c 3f f5 37 80 3f
       1.0085094 0.97874683 0.988086 1.0017077
0002b0 79 f0 7e 3f 94 58 79 3f f9 fa 7c 3f ce cd 76 3f
       0.9958568 0.97400784 0.98820454 0.96407783
0002c0 d9 dd 7b 3f 0f bf 7d 3f e6 ec 7b 3f a9 ed 7a 3f
       0.9838539 0.9911966 0.98408353 0.9801889
0002d0 e6 27 7b 3f 4e af 81 3f 17 61 7a 3f 4e 62 7c 3f
       0.98107755 1.0131624 0.978044 0.985875
0002e0 01 da 7f 3f 20 df 7c 3f bc 3b 8c 3f 31 8d 73 3f
       0.9994202 0.9877796 1.095573 0.95137316
0002f0 bd 01 7c 3f 0b f2 7c 3f 31 02 7a 3f 79 03 7b 3f
       0.9844015 0.9880683 0.97659594 0.98052174
000300 c9 4c 7f 3f 6e 00 7b 3f a1 45 7c 3f fa 7f 81 3f
       0.9972654 0.9804753 0.98543745 1.011718
000310 f1 b0 7a 3f b3 a8 75 3f 1a 5a 81 3f 44 25 7a 3f
       0.9792624 0.9596054 1.0105622 0.9771311
000320 40 66 7a 3f a3 ae 7b 3f 5e fe 78 3f 27 de 82 3f
       0.9781227 0.9831335 0.97263134 1.0224046
000330 8a 3c 7b 3f 1c 98 7d 3f 6d 52 80 3f 74 ff 7a 3f
       0.9813925 0.99060225 1.0025154 0.9804604
000340 40 70 86 3f 8b 8c 7b 3f 9d 99 80 3f 4d 10 77 3f
       1.0503006 0.98261327 1.0046879 0.9650925
000350 2e 3f 80 3f ee ea 84 3f 06 9a 7e 3f 1b 4a 82 3f
       1.0019281 1.0384195 0.9945377 1.0178865
000360 f8 65 82 3f 3d 80 85 3f b1 0a 82 3f 57 fb 75 3f
       1.0187368 1.042976 1.0159513 0.9608664
000370 d2 e5 75 3f 9a 10 7f 3f fc 4a 7b 3f d9 94 81 3f
       0.960538 0.99634707 0.9816129 1.012355
000380 b3 67 84 3f b9 5f 7b 3f 26 1a 79 3f bc 23 88 3f
       1.0344146 0.98192936 0.97305524 1.0635905
000390 49 01 7f 3f df e9 79 3f a1 06 84 3f 5a c6 79 3f
       0.99611336 0.97622484 1.0314523 0.97568285
0003a0 6a d2 85 3f 02 a6 7c 3f af 8f 81 3f 7a bf 85 3f
       1.0454838 0.9869081 1.0121974 1.0449059
0003b0 c6 fb 77 3f 74 2c 7d 3f f6 5d 7d 3f 8f fb 7a 3f
       0.9686855 0.98895955 0.989715 0.980401
0003c0 bb 34 7e 3f 0e c0 88 3f 60 d0 7c 3f 0a 53 7f 3f
       0.9929921 1.068361 0.98755455 0.9973608
0003d0 64 17 82 3f 7b f1 7f 3f 79 61 80 3f b0 99 80 3f
       1.0163388 0.99977845 1.0029746 1.0046902
0003e0 84 98 7d 3f f3 70 7e 3f 4c 24 7d 3f 5e 89 7c 3f
       0.99060845 0.99391097 0.9888351 0.98647106
0003f0 40 51 82 3f 25 e6 7c 3f 9c 8b 7d 3f 1b 9c 7b 3f
       1.0181046 0.9878867 0.9904115 0.98285073

network.1.bias f4 [256]
000000 e0 de de 3c d3 03 37 bc d4 50 e1 bc 83 56 aa bc
       0.027205884 -0.011170345 -0.027504362 -0.020793205
000010 7d 9e c9 bc e4 98 db bc 38 c8 a0 3b 5e 7f 03 bd
       -0.024611706 -0.026806302 0.0049066804 -0.03210389
000020 f8 18 25 bd c1 2c ed bc 53 b2 39 bc a8 eb 19 bc
       -0.040307015 -0.028952004 -0.01133402 -0.009394564
000030 88 df 85 bc e3 70 b6 3c a6 99 31 3c 22 d1 0e bb
       -0.01634194 0.022270625 0.010839855 -0.0021792133
000040 28 d1 99 3b 2c 09 bb ba 0b 75 9d bc 55 d1 c3 ba
       0.004694123 -0.0014269701 -0.01922085 -0.0014939705
000050 b9 53 0a bd 64 e7 16 bd f2 5e a5 bc 4f b2 1e bd
       -0.03377125 -0.036841765 -0.020186875 -0.038744267
000060 5d 26 bc 3c f3 07 d0 3b 7b c6 04 bb 07 36 86 3c
       0.022967512 0.006348604 -0.0020259905 0.016383184
000070 76 19 c7 bb fb 3d 33 bd f6 80 96 bb 91 8e 37 3c
       -0.006076033 -0.04376028 -0.00459301 0.011203424
000080 59 56 02 3c a6 00 9b 3c ff f7 43 bd 36 f1 1a bd
       0.007955157 0.018921208 -0.04784393 -0.037827693
000090 d7 62 82 bb a5 04 d4 bc 7f 2d aa bc c8 c5 25 bc
       -0.003979068 -0.025881121 -0.020773647 -0.0101179555
0000a0 5c b0 41 bd 6c b7 47 bc ea 49 dd 3b e8 8c 9e bc
       -0.04728733 -0.012189727 0.006753196 -0.019354299
0000b0 02 51 7a bc 34 cf f1 bb e0 f9 97 bb 13 a8 d0 3b
       -0.015278103 -0.007379437 -0.0046379417 0.0063676923
0000c0 8b 7b 5d bc 4b e0 8c ba 34 d7 de bb 37 ef 4b bd
       -0.0135182245 -0.0010747997 -0.0068005566 -0.04978868
0000d0 b9 60 27 3c 94 6a 43 3b 98 26 28 bd cd e0 d2 ba
       0.010215932 0.0029818164 -0.04105243 -0.0016088724
0000e0 72 04 4e 3d a3 fa be bc 12 e2 00 3c 5e 29 60 3b
       0.050297208 -0.023312872 0.007866399 0.0034204344
0000f0 43 aa 98 bc b2 e7 2e 3d 87 8c 32 bc 63 60 dc bc
       -0.018635875 0.04270143 -0.010897762 -0.02690143
000100 95 d9 88 bc b2 03 ba 3c cc b4 9e bc 31 6c 6c 3b
       -0.016705314 0.02270684 -0.01937332 0.003607523
000110 28 0f b6 3c c4 30 32 3c de b0 22 bc 2b 31 9f bc
       0.022224024 0.010875884 -0.009929864 -0.019432625
000120 95 c6 df bc bb 7f 50 bc 6d d5 16 bc fe 1a 07 3d
       -0.027316371 -0.012725766 -0.009206158 0.032984726
000130 d1 5d 4e bd ca 8e d5 bb 72 ee d1 3c f0 4a 86 bb
       -0.05038244 -0.006517266 0.025626395 -0.0040982887
000140 cc 39 06 bc 5e 39 fe bb bb 64 3e bb eb 45 79 3c
       -0.008192491 -0.0077583035 -0.002905174 0.015214424
000150 fc f5 2b bc d7 b3 e8 bc 66 58 58 bc ab 72 93 ba
       -0.010495659 -0.028406067 -0.01320467 -0.0011249384
000160 b0 e4 2f bc 64 8e 8e bc 7e 65 3a bc 9f 73 8a bc
       -0.010735676 -0.017401882 -0.011376737 -0.016900836
000170 f6 45 23 bd 8e eb 32 bc 1a cc 4e bc ce 51 80 bc
       -0.03986164 -0.010920418 -0.012621904 -0.015664008
000180 db 54 96 3c 9a 59 bb 3c e7 77 c9 3c fb 02 99 bc
       0.01835101 0.022869874 0.024593307 -0.018678179
000190 c5 11 23 bd 0d 99 96 bc 91 f8 e1 bb 7e 20 14 3b
       -0.03981187 -0.018383527 -0.0068960865 0.0022602375
0001a0 d4 67 06 bd 9d 94 af 3b e0 02 d4 3c db 69 96 3c
       -0.032813862 0.0053582923 0.025880277 0.018361023
0001b0 e8 6b db 3c e7 6a af 3c a3 27 08 3d 6f c0 04 3d
       0.026784852 0.02141328 0.033240926 0.03241008
0001c0 a3 d7 b5 bc 4d d1 f9 3c 36 28 ae bc 91 0d d3 3c
       -0.02219755 0.03049531 -0.021259408 0.025763305
0001d0 dc 49 d0 bc dd e0 79 bc 4a 91 37 3c fe f6 a3 3c
       -0.025425844 -0.0152513655 0.011204073 0.020015236
0001e0 1d f2 22 3d 3a fb a2 bb fc 9f a9 bc 1f a0 d7 3b
       0.03978168 -0.004973796 -0.02070617 0.006580367
0001f0 95 8c 3c bc 99 bd a4 bc e6 2d 07 bc 1c b3 35 bc
       -0.011508127 -0.020109938 -0.008250689 -0.011090066
000200 ae 33 8c 3b e5 94 21 3a 77 eb 78 bc b1 47 89 bc
       0.0042786216 0.00061638496 -0.015192858 -0.016757818
000210 93 6d 0e 3d 8b 25 2b bd f0 77 a4 3b 0f 87 9b 3a
       0.034772467 -0.04178385 0.0050191805 0.0011865812
000220 69 5f 0f bd 51 8c 82 bc 10 b7 45 bc 2a 6e 0f 3d
       -0.0350031 -0.015936049 -0.012067571 0.03501717
000230 2d 50 b4 3c 7e 14 48 39 68 13 b2 3c db 96 22 bc
       0.022010887 0.0001908112 0.02173777 -0.009923662
000240 e6 2f d4 bc c9 5e a1 bc 60 f3 0f 3d de 3d ae 3c
       -0.025901746 -0.019698517 0.03514421 0.021269735
000250 77 dc e1 bc 0e 57 1b 3b 3a 20 47 bc 73 e1 7c bb
       -0.027570946 0.0023703012 -0.0121536795 -0.0038586527
000260 d3 92 2a bc d0 e5 c7 bc d0 11 40 bc 9e 74 58 bb
       -0.010410982 -0.024401575 -0.011722997 -0.0033028494
000270 29 3c ae bc 40 05 87 bd d9 02 21 bd 4a d3 8f 3c
       -0.021268921 -0.06592798 -0.039309356 0.017556805
000280 9f 3d 15 bc 76 61 b3 bc 01 56 a2 bc e7 a5 d7 bc
       -0.00910893 -0.021897059 -0.0198164 -0.026324226
000290 87 19 44 3d 10 7b 1a bd 93 0d 49 bc 79 4e 50 bc
       0.047875907 -0.037715018 -0.012271303 -0.012714022
0002a0 18 ec 39 bc 6b 56 1f bd a6 0c 88 bc fa ad 34 bc
       -0.011347793 -0.038900774 -0.016607594 -0.011027807
0002b0 a5 b3 64 3b 34 0a fc bc 69 7e 6c bc 4e 26 23 bd
       0.0034897116 -0.030766584 -0.014434435 -0.039831452
0002c0 16 ec 7e bb de 62 92 bb 78 f9 6f bc 80 eb dd bc
       -0.0038898042 -0.0044673523 -0.01464688 -0.027089834
0002d0 80 67 5f bc c2 b5 55 bb dd 26 d2 ba cf 97 ff 3b
       -0.013635516 -0.0032609557 -0.0016033311 0.0078000794
0002e0 2a a6 27 bc df 0d 9b bc a5 1c 61 3d 80 f5 01 bd
       -0.010232488 -0.018927513 0.05495896 -0.031728268
0002f0 eb 61 86 3c b0 26 85 bc 01 d8 a4 bc 5d eb 7d 3c
       0.016404113 -0.0162538 -0.02012253 0.0154980095
000300 93 23 b7 3b 52 9c ea bc a1 65 ad bb df 2e e3 3b
       0.0055889576 -0.028638992 -0.005291656 0.0069330777
000310 a2 76 a1 bc 03 6f 32 bd 14 db 28 bd c1 c6 fb bc
       -0.019709889 -0.0435629 -0.041224554 -0.030734422
000320 9d 04 ce ba 1e 1d 8c bb 33 89 bd bc 0d 94 8d bc
       -0.0015717928 -0.004275932 -0.02313671 -0.01728251
000330 aa b2 a9 3b a9 c7 a1 bc 63 c2 a9 bc 0c 41 d9 ba
       0.005178769 -0.019748526 -0.020722574 -0.0016575172
000340 3a 44 51 3d 24 94 12 3c 1e 08 c4 bc ea 9c 0f 3b
       0.051090457 0.008946452 -0.023929652 0.0021913596
000350 5f 53 db 3b cf 00 cd 3c 73 4c 82 bc d8 b8 ba 3c
       0.006693288 0.0250248 -0.015905594 0.022793218
000360 34 2a 90 bb 21 b2 16 3d e2 90 91 3a 58 63 c5 bc
       -0.0043995623 0.03679097 0.00111058 -0.024095222
000370 0b 8a 1e bd e3 15 b6 bc e7 3e 05 bb 1f 77 db 39
       -0.038705867 -0.022227233 -0.0020331682 0.00041859687
000380 97 5c 02 3b 20 e2 38 3b 59 da ce bc da 18 7f 3c
       0.0019891614 0.0028210953 -0.0252506 0.01556989
000390 61 6f 55 bc 76 37 a4 ba 98 04 4b 3d 3b 94 33 bc
       -0.013027043 -0.0012528736 0.049564928 -0.010960634
0003a0 90 64 13 3c b7 84 6f 3c 2a b2 62 3c 15 61 8a 3c
       0.008996144 0.014619044 0.013836423 0.016891995
0003b0 6e 93 75 bc dd 40 21 bc fb 2e c9 3b 1a b1 26 bc
       -0.014988763 -0.009842125 0.0061396337 -0.01017406
0003c0 39 26 5c 3c 41 49 22 3d 1e 30 32 bb e7 22 88 3c
       0.013436847 0.03962064 -0.0027189325 0.016618205
0003d0 96 b9 c6 3c 61 d5 15 bc 75 4c 9a bc 28 0c 32 bc
       0.024258416 -0.009145112 -0.018835286 -0.010867156
0003e0 61 e3 a1 bb 19 92 f3 3c 53 a5 5d bc 13 1d 2e bd
       -0.0049404358 0.02973275 -0.013528186 -0.042508196
0003f0 0b 74 53 3c 8a 10 49 bc a3 54 51 3c 3a 4d 2c bc
       0.012906085 -0.01227201 0.012776527 -0.010516459

network.1.running_mean f4 [256]
000000 ef cd 6b bc 0e b7 84 bc 4d e9 64 3d 94 73 a4 bd
       -0.01439236 -0.016200569 0.055886555 -0.08029857
000010 0f bc ce bc 27 0c 20 be ba 78 6e bd 24 b9 29 be
       -0.025236158 -0.15629636 -0.058220603 -0.16574532
000020 8c 20 41 3d f2 af ce bd e6 60 91 bd 40 13 ef bd
       0.04715018 -0.10092153 -0.0709856 -0.116735935
000030 9c 8a 03 3e d3 70 4f bd 8a 51 dd 3d d6 28 a7 bd
       0.12845844 -0.050644707 0.10806568 -0.08162086
000040 56 c4 f2 3d c7 ba d5 bc fb bb e6 bd c9 b1 06 3e
       0.11853854 -0.026090039 -0.11266323 0.13153757
000050 ca 9d c4 bd 6a 36 b8 bd 9b c8 af 3d 95 94 31 bc
       -0.096004084 -0.08994754 0.08583184 -0.010838647
000060 9d 9b 39 3c 8c cd 14 3e b2 14 f6 bd e5 56 24 bd
       0.011328605 0.14531535 -0.12015666 -0.04012193
000070 dc 1f 7b 3d 42 c1 0a bd cb 6c 02 3c fd ae 56 bd
       0.06130968 -0.03387571 0.007960509 -0.052412976
000080 d6 90 23 bc 42 d7 0c 3e 22 e5 8f bc a0 75 80 3d
       -0.009983262 0.1375399 -0.017565314 0.06272435
000090 2c ff 00 3e 33 0f 04 3e 67 62 86 3d 6f 17 de 3d
       0.1259734 0.12896423 0.065617375 0.10844313
0000a0 1f 98 c1 bc b9 5c 25 3c 17 d1 8d bd 9b 48 13 be
       -0.023632107 0.010092908 -0.06924646 -0.14383166
0000b0 43 c2 03 3e ea f1 1e be 06 1b cd bd 87 2e 5e bd
       0.12867074 -0.1552197 -0.1001492 -0.05424359
0000c0 a9 30 1c be 28 36 f6 bd 0a be db bd a3 5f e0 3c
       -0.15252937 -0.12022048 -0.107296064 0.027389353
0000d0 3b e1 00 be 0e 13 d9 bd 5d 93 d8 bd bc 76 0f be
       -0.12585919 -0.105993375 -0.10574982 -0.14010137
0000e0 65 3e 09 3d e6 bc 0a 3c 0a 4c b9 3c 9a 91 0b 3e
       0.03350677 0.008467888 0.022619266 0.13629761
0000f0 a1 51 58 bd b6 13 58 bd 5f a8 55 3d eb b0 1e 3e
       -0.052812222 -0.052753173 0.052162524 0.15497176
000100 fe 31 52 3d 7e 26 08 bc 7b 41 c1 3c 3d 77 10 be
       0.051317208 -0.0083099585 0.023590794 -0.14107986
000110 3c 67 d2 bd 25 63 b6 bd 4b 71 1e be 7f 3d 05 be
       -0.10273597 -0.08905629 -0.15472905 -0.1301174
000120 cd ed e4 bd 3a a0 48 3d a2 3a 0e 3d a4 b5 45 3b
       -0.111781694 0.04898093 0.034723885 0.003016808
000130 d4 37 d2 bc 31 9f 3f 3c 48 e7 da 3d b0 32 ea bd
       -0.025661387 0.011695669 0.10688645 -0.11435449
000140 b1 8c f3 3d 86 9c 7f 3d 0a 20 4b bd 94 64 cc 3d
       0.11892069 0.06240513 -0.0495911 0.09980121
000150 0b 4d 9e b9 33 b0 99 bd 18 87 14 3e 5d ba 2c 3d
       -0.0003019351 -0.075043105 0.14504659 0.042169917
000160 04 ff dc 3d 7b 1e 36 bd 61 6f 14 be 6e 06 09 3e
       0.10790828 -0.044462662 -0.14495613 0.13381359
000170 6d 36 d9 ba c3 5a 71 3d b6 a1 49 bd fc 3d b0 3d
       -0.0016572006 0.058924448 -0.049226485 0.086055726
000180 5b 52 f0 bd e4 8a 5b bc ec 15 ff 3d 25 a2 15 bd
       -0.11734458 -0.013399813 0.12455353 -0.036531586
000190 7f 12 0d 3e b0 39 57 3d e6 97 ad 3d f9 05 0e 3e
       0.13776587 0.05254525 0.08476238 0.13869466
0001a0 9c fc e8 bc 42 ea 3a bd 81 4f d3 3d bb 71 94 bd
       -0.028440766 -0.045633562 0.103178985 -0.07248255
0001b0 15 ca 09 be e0 fe ad 3d 3d 4e 21 be 6e 69 94 bd
       -0.13455994 0.08495879 -0.15752502 -0.072466716
0001c0 50 0e 8b 3c 85 a7 2a 3d 08 e3 ca bd e0 bc 7f bd
       0.016974598 0.041663665 -0.09906584 -0.062435985
0001d0 4f 61 ce 3d 65 4d db bd 51 df d8 3d 60 19 24 bd
       0.10077154 -0.10708121 0.10589469 -0.040063262
0001e0 48 9d 63 bd 87 5e 18 be 5d f5 36 bd 9d df fc 3d
       -0.055569917 -0.1487981 -0.04466759 0.12347338
0001f0 9f e7 a2 bd e4 c2 f0 bd 89 f8 fd 3b 54 61 eb 3d
       -0.079543345 -0.117559224 0.007750575 0.11493173
000200 1f 9e c4 bc ad 76 24 3e 5b 9a 16 3e 07 49 1a 3e
       -0.02400118 0.16060896 0.1470732 0.1506692
000210 92 08 c6 bd f9 b3 d8 bd dc e6 0c be ac 9e 5e bd
       -0.096696034 -0.10581202 -0.13759941 -0.05435054
000220 24 d6 c7 bd 57 f7 95 3d d7 5a d6 3c f3 76 0e 3e
       -0.09757641 0.07322567 0.026166363 0.13912563
000230 86 3b 10 be ea 45 06 be 7f 3b 07 bd 62 0a 49 3d
       -0.14085206 -0.13112608 -0.033015724 0.049082167
000240 64 14 f7 3d 10 1d df bb 89 46 10 3e 41 25 0a bd
       0.12064436 -0.0068088844 0.14089407 -0.033726934
000250 d8 97 a3 bc 5d 67 75 bd 4e 89 88 bd 92 ab 30 bd
       -0.019969866 -0.059913028 -0.06666814 -0.043132372
000260 15 6c 0f be 82 4e bf bc d7 16 27 bd 11 21 04 be
       -0.14006074 -0.023352865 -0.040793266 -0.12903239
000270 f9 5d ef bd b0 88 1e be e8 ba 3b bd fd 9d 09 be
       -0.11687846 -0.1548183 -0.045832545 -0.13439174
000280 f7 25 09 3e b9 5d e7 bc 82 d3 1f 3d d4 6a fe bd
       0.13393389 -0.028242933 0.03902007 -0.124227196
000290 78 ce bb 3c c3 2b 0d be d3 e9 9b 3d 58 a4 96 3d
       0.0229256 -0.13786225 0.07612958 0.07355565
0002a0 3c f5 18 be 69 3b 79 3d 94 84 ca 3c 3d bd b8 bd
       -0.149373 0.060847674 0.024721421 -0.09020469
0002b0 52 63 b0 bd c8 a9 22 3e 79 6e a0 bd 0a 8d 14 3e
       -0.08612694 0.15885079 -0.07833571 0.14506927
0002c0 ca d4 1d 3d f2 96 95 3d 6c cc 9e bd 9f 50 37 3d
       0.03853301 0.07304181 -0.07753834 0.04475462
0002d0 ee 26 23 3d f6 f8 05 3e 76 48 22 be 73 14 37 bd
       0.039832048 0.13083252 -0.15847954 -0.044697236
0002e0 54 a9 8d 3c 42 ab e8 bd 9f 76 1e 3d 9c b8 de 3d
       0.017292656 -0.1136079 0.038687345 0.10875055
0002f0 fc 7b c3 3d 72 c6 9f bd dd b9 91 3d 53 41 e3 bd
       0.095451325 -0.07801522 0.07115529 -0.11096444
000300 1e 11 b7 3d 29 3c 05 be 7f 5c 14 be 87 93 29 3d
       0.08938812 -0.1301123 -0.1448841 0.04140046
000310 82 10 40 bc 18 93 fe 3c a8 7d 15 3e 7f 27 09 3e
       -0.011722686 0.031076 0.14598715 0.13393973
000320 7e e7 d8 3d e7 14 1b be 0f b4 19 bd 34 02 07 3d
       0.10591029 -0.15144692 -0.037525233 0.032961085
000330 f0 c9 27 be 5e cd 01 3e c1 16 d4 3d 8f da 83 bd
       -0.16385627 0.12675998 0.103559025 -0.06438171
000340 93 8a c0 bc c0 25 9b bd 36 85 91 3d 21 57 b1 3c
       -0.023503577 -0.075755596 0.07105486 0.021647992
000350 71 5d 59 bd 5b 2e 9c 3d 51 92 20 bd 40 f3 49 bc
       -0.05306763 0.07626029 -0.03920204 -0.012326062
000360 eb 31 c2 3d 40 28 85 bd 16 39 15 be 05 13 ce 3d
       0.09482177 -0.06501818 -0.14572558 0.100622214
000370 e6 c5 e7 bd cc 9a 81 3d 8f a3 3d bd 87 b6 cc 3d
       -0.11317043 0.06328353 -0.04629856 0.09995752
000380 2b 7d a1 bb 7e f2 95 bd af ac fa bd 3b 35 e5 3d
       -0.0049282513 -0.07321642 -0.12239968 0.111917935
000390 6c e4 f4 bd cd 8f 36 3d a4 c2 f3 3d e4 9a fa bd
       -0.119576305 0.044570733 0.11902359 -0.12236574
0003a0 91 1e f3 bd 5d 48 a2 3c 13 58 92 bd 77 82 ef bd
       -0.118710645 0.019809896 -0.07145705 -0.11694806
0003b0 25 7f d6 3d 02 6b 1d be be 2d 90 bd fd e1 0c be
       0.1047347 -0.15372851 -0.07039975 -0.13758083
0003c0 8c cc 36 3d 74 c5 08 3d c4 a3 92 3d 0e 95 50 3d
       0.044628665 0.03339143 0.07160142 0.0509234
0003d0 11 77 05 bc 5c 1e 84 bd 84 38 10 3e 97 41 91 3c
       -0.008146063 -0.06451103 0.14084059 0.017731471
0003e0 bc 82 02 3d b1 8c 02 be 85 f8 26 be f1 2e 91 bd
       0.03186296 -0.12748982 -0.1630574 -0.070890315
0003f0 95 e9 96 bd 38 82 2c 3d 8a eb 99 bd 97 b5 be b9
       -0.07368771 0.042116374 -0.07515629 -0.0003637492

network.1.running_var f4 [256]
000000 9b 1a a3 3e f6 5b b1 3e 72 39 ce 3e b8 a4 01 3f
       0.31856236 0.34640473 0.40278202 0.50641966
000010 70 86 a2 3e 08 95 a1 3e f4 e7 3d 3f 7e ee bc 3e
       0.31743193 0.31559014 0.7418206 0.36900705
000020 66 18 9b 3e 55 65 a1 3e f7 92 8b 3e 94 d6 7c 3e
       0.30292052 0.31522623 0.27260563 0.2469123
000030 f0 0b c3 3e df 12 b7 3e 64 66 66 3f 55 39 f9 3e
       0.38095045 0.35756585 0.89999986 0.48676553
000040 ac 9b 9e 3e 21 dd a5 3e dd 20 d7 3e cb 1d 76 3e
       0.30978143 0.3239527 0.4201726 0.24034803
000050 9d d8 df 3e 6a 66 b9 3e b2 3f 9c 3e 04 12 e2 3e
       0.4371995 0.36210948 0.30517346 0.4415437
000060 48 74 96 3e 36 74 a0 3e f0 be dc 3e d4 2e a0 3e
       0.2938559 0.31338662 0.43114424 0.31285727
000070 53 9a 0e 3f 45 68 a5 3e 07 7f ef 3e 0e 3e 9a 3e
       0.5570423 0.32306114 0.46776602 0.3012547
000080 d6 14 a5 3e 6b 89 7d 3e 1f 98 c7 3e de 8b 6f 3e
       0.3224246 0.24759452 0.38983247 0.23393199
000090 02 0d ae 3e a3 11 d8 3e 37 d1 86 3e ed 6c 65 3e
       0.339943 0.42200956 0.26331493 0.22404833
0000a0 cb b6 87 3e f3 bb 98 3e 42 45 9e 3e 15 88 d7 3e
       0.26506647 0.29830894 0.30912215 0.4209601
0000b0 10 c2 20 3f f7 a6 76 3e f5 53 f6 3e 37 51 88 3e
       0.62796116 0.2408713 0.4811093 0.26624462
0000c0 50 5c d9 3e 43 e6 69 3e 17 9f d5 3e b2 6c de 3e
       0.4245324 0.22841744 0.41722938 0.43442303
0000d0 7e 60 90 3e 8b 6d ce 3e e5 67 a7 3e 4b fc f5 3e
       0.28198618 0.4031795 0.32696453 0.48044047
0000e0 b0 d5 c0 3e af 2f fe 3e 00 b8 97 3e 7b 45 cd 3e
       0.3766303 0.49645755 0.29632568 0.40092072
0000f0 80 08 b9 3e cc 17 9c 3e ae 48 63 3e a1 ba c4 3e
       0.36139297 0.30486906 0.22195694 0.38423637
000100 c4 93 97 3e 46 b8 a4 3e dd d5 f9 3e a2 e5 a4 3e
       0.29604924 0.3217184 0.48795977 0.32206446
000110 ae 57 a7 3e 5b 6f 2c 3f 59 30 ac 3e 45 0d 8c 3e
       0.32684082 0.67357415 0.33630636 0.27353874
000120 ea be 91 3e b9 4b b8 3e bc 09 f2 3e 05 2f a4 3e
       0.28465968 0.35995272 0.47273052 0.32067123
000130 e0 b3 a7 3e a2 98 8e 3e ca 73 73 3e 29 3f 66 3e
       0.3275442 0.27850825 0.23774639 0.22485031
000140 86 7f e7 3e 77 ce a2 3e 98 f3 60 3e d6 e5 13 3f
       0.4521448 0.31798145 0.21967924 0.57772577
000150 22 6d 7f 3e 29 84 8c 3e 7c 11 cf 3e 8f bf de 3e
       0.24943975 0.2744458 0.40443027 0.43505523
000160 d5 68 17 3f 9a 9d ea 3e ee d5 c7 3e d3 42 89 3e
       0.59144336 0.45823365 0.39030403 0.26808795
000170 f9 66 a2 3e d7 13 1b 3f ae d9 d2 3e 44 0d b0 3e
       0.31719187 0.6057715 0.411817 0.3438512
000180 cf a3 5e 3e 72 a0 c8 3e e2 e2 8e 3e e6 c8 5e 3e
       0.21742176 0.3918491 0.27907473 0.21756324
000190 ff a1 ea 3e 66 76 e0 3e c8 55 a6 3e 5d 28 af 3e
       0.45826718 0.4384033 0.3248732 0.34210482
0001a0 b9 31 08 3f ff 13 e9 3e a4 39 95 3e ad cf 90 3e
       0.5320087 0.45523068 0.2914554 0.28283444
0001b0 ab 0f 1f 3f df 4f f1 3e 21 55 11 3f 8c 1e 8d 3e
       0.6213328 0.4713125 0.5677052 0.27562368
0001c0 af ec 1e 3f ed 0f ab 3e a7 9c 67 3e a2 b2 0e 3f
       0.620799 0.33410588 0.22618352 0.5574132
0001d0 01 a7 d1 3e 9e 29 91 3e 56 ca c8 3e c0 5f f4 3e
       0.40947726 0.28352064 0.3921687 0.477293
0001e0 4d ff b6 3e d7 d4 8b 3e e6 61 80 3e 23 4b a1 3e
       0.35741654 0.2731082 0.2507469 0.31502637
0001f0 6d 6e 16 3f 36 47 d7 3e 06 18 01 3f 86 a5 92 3e
       0.58762246 0.42046517 0.5042728 0.2864191
000200 da f3 ec 3e b6 3f 9f 3e cc be d9 3e 07 ad 8f 3e
       0.46279794 0.31103295 0.4252838 0.28061697
000210 84 9c 50 3e f1 8d d9 3e e2 65 d2 3e 4b 2f 22 3f
       0.20372206 0.42491105 0.41093355 0.63353413
000220 89 18 db 3e 91 48 86 3e de aa 9f 3e b3 17 ce 3e
       0.42792156 0.2622724 0.3118505 0.40252456
000230 ad 5d d6 3e bc 93 ad 3e 50 cb 87 3e 42 d8 69 3e
       0.41868344 0.33901775 0.26522303 0.22836402
000240 d6 a7 dc 3e d6 47 ae 3e dc dd a0 3e 5a c2 8f 3e
       0.430968 0.3403918 0.31419265 0.28077966
000250 3b 4d 90 3e 35 e5 23 3f 99 58 bb 3e 07 02 f5 3e
       0.28183922 0.6402162 0.36591032 0.4785311
000260 ff 69 aa 3e 3d ed 04 3f f6 42 ad 3e 71 68 17 3f
       0.33283994 0.51924497 0.3384015 0.5914374
000270 6d a2 ae 3e 20 b8 87 3e 9e 18 11 3f 10 c5 ba 3e
       0.34108296 0.26507664 0.5667819 0.36478472
000280 c0 43 ac 3e c5 ee 8e 3e 06 83 c1 3e 02 de 9e 3e
       0.3364544 0.27916542 0.37795275 0.31028754
000290 36 2f 0a 3f 4a fe a9 3e 7f 45 b6 3e a9 07 4a 3e
       0.5397829 0.3320182 0.35599896 0.19729485
0002a0 fe d8 85 3e 86 e4 9b 3e 41 7d 80 3e fd 5f 9f 3e
       0.26142114 0.30447787 0.2509556 0.3112792
0002b0 1f 12 42 3f db e1 c9 3e 24 2e b9 3e ec 40 be 3e
       0.758089 0.39430127 0.36168015 0.37158906
0002c0 55 91 8f 3e bd 0e a1 3e 64 2a 98 3e 63 26 b3 3e
       0.28040567 0.31456557 0.2971984 0.34990224
0002d0 0c 54 cc 3e c4 90 ba 3e e3 82 d1 3e 8e 54 cd 3e
       0.39907873 0.36438572 0.4092017 0.40103573
0002e0 00 bd be 3e 3b 54 54 3e fc 31 8a 3e 66 d0 a2 3e
       0.3725357 0.20735256 0.2699126 0.3179962
0002f0 fe 85 22 3f f9 3f bf 3e 1d f8 d5 3e 4f 8e 68 3e
       0.63485706 0.37353495 0.41790858 0.22710536
000300 75 ca cd 3e 21 68 7b 3e 5d ba be 3e 01 f0 0a 3f
       0.40193525 0.24551441 0.3725156 0.54272467
000310 2b f7 8b 3e 25 be af 3e c1 cc 89 3e 81 e8 2b 3f
       0.27337012 0.34324756 0.26914027 0.6715165
000320 f6 76 90 3e 49 45 e0 3e f2 1c e6 3e 78 e7 cb 3e
       0.2821576 0.4380286 0.4494396 0.39825034
000330 55 85 b2 3e 9f c1 06 3f cc 10 bc 3e 38 e2 e1 3e
       0.3486735 0.5263919 0.36731565 0.44117904
000340 83 95 bc 3e 80 0e cd 3e fc 23 b7 3e ad ce c0 3e
       0.36832818 0.40050125 0.3576964 0.3765768
000350 77 de a4 3e 57 20 cc 3e d2 5f bc 3e 95 d1 45 3f
       0.32200977 0.39868423 0.36791855 0.7727292
000360 e8 29 ca 3e 2a f5 69 3e 14 33 cd 3e 50 9e b5 3e
       0.39485097 0.22847429 0.40078032 0.35472345
000370 26 64 b5 3e 51 74 a4 3e 75 ae 90 3e 77 d0 c3 3e
       0.3542797 0.32119992 0.282581 0.38244984
000380 48 93 94 3e 28 9d 8e 3e c3 91 84 3e 88 08 9a 3e
       0.29018617 0.27854276 0.25892457 0.30084634
000390 b9 39 17 3f 42 ee c1 3e 36 84 99 3e 7c 00 8c 3e
       0.5907245 0.3787709 0.2998368 0.2734412
0003a0 a0 77 98 3e 9c 5d ff 3e 2c bb 8a 3e 38 7d bf 3e
       0.29778767 0.49876106 0.27095926 0.37400222
0003b0 ab 2e d2 3e 8f da ef 3e d1 05 b0 3e 7c 0e 8b 3e
       0.4105123 0.46846434 0.34379438 0.27159488
0003c0 14 d6 a4 3e d8 ca c3 3e f5 41 ad 3e 4b b6 aa 3e
       0.3219458 0.38240695 0.33839384 0.33342203
0003d0 67 8a a6 3e a0 fb 23 3f ea 70 86 3e f7 e2 a1 3e
       0.32527468 0.64055824 0.26258022 0.31618473
0003e0 1e af 95 3e dd a3 c0 3e 35 57 b3 3e c5 3f c3 3e
       0.29235166 0.37625018 0.3502747 0.3813459
0003f0 06 58 98 3e 1e e1 d9 3e 8d a8 ce 3e 9c fb 8d 3e
       0.29754657 0.42554563 0.4036297 0.27731025

network.4.weight f4 [128, 256]
000000 56 c2 a8 3d 03 68 b4 bc 7f 87 91 3c 03 e4 55 3b
       0.08240192 -0.022022253 0.017764805 0.0032637126
000010 40 ff cb 3c e9 ab d9 3c 4e ef 90 3b 62 84 fb 3b
       0.024901986 0.026571231 0.0044230586 0.0076756934
000020 ee 99 99 3c 64 e9 ad 3c c8 7d 0b bd d1 5e 78 bd
       0.018750157 0.021229453 -0.0340555 -0.0606373
000030 b2 18 89 3d 5f 8e af bc ee 95 a3 bd fc d8 12 bd
       0.066941634 -0.021430193 -0.07987581 -0.035851464
000040 63 4c 58 3c f9 a6 5a 3b dc 9a ca 3c 05 7a 27 3d
       0.013201806 0.0033363684 0.024732046 0.04088785
000050 9e 0f d3 3c 62 1d 15 bd 88 d4 0e 3c 3a ce 0a 3c
       0.025764283 -0.036404975 0.008717664 0.00847202
000060 14 23 df bc b6 ac 15 3b 4d 82 2b 3d 9a 5b 20 3d
       -0.027238406 0.002283854 0.04187231 0.039149858
000070 d6 7f 13 3d 21 d3 57 3d 25 a9 71 3d 71 72 11 bc
       0.036010586 0.052691583 0.0589992 -0.008877383
000080 7e c9 9c 3d 03 7a e3 3c c9 a3 34 3a 79 e1 82 3d
       0.07655619 0.02776814 0.0006890861 0.06390662
000090 e1 c9 20 bc 8a d8 5e 3c 24 11 0a bd 53 1a 95 3d
       -0.009813757 0.013601432 -0.033707753 0.072804116
0000a0 e0 7e f6 3c 4b 9e 91 3b 20 98 51 bd 49 a3 26 3d
       0.030089796 0.004443919 -0.05117047 0.040683065
0000b0 ec a6 0f bd 27 84 35 3d de 36 14 bd 94 b5 45 3c
       -0.0350713 0.044315483 -0.036185138 0.012067217
0000c0 1e 0e 83 bd 12 88 41 bd c5 7a 0b 3d a6 4d 3e bd
       -0.06399177 -0.047248907 0.03405263 -0.04646077
0000d0 6b 5c 14 3c 1a 2a 04 3d 32 67 d1 bc 90 95 f3 bb
       0.009055237 0.032266714 -0.025561903 -0.0074336007
0000e0 9f d6 bf 3a 3c 87 02 bd dd 32 72 bd 8c 11 e3 bc
       0.0014636106 -0.03186725 -0.05913054 -0.027718328
0000f0 b6 ef 84 3c 8f a0 00 bd 97 57 12 3d b6 26 92 3c
       0.016227584 -0.03140312 0.035728063 0.017840724
000100 9d ae 85 3d e4 78 7b 3d f7 92 2d bd 44 0b 42 bc
       0.065274455 0.061394587 -0.042376485 -0.011843506
000110 37 36 ad 3d 69 79 a3 bb c8 6e e5 bc 8c 6e 90 bc
       0.08457606 -0.0049888385 -0.028006926 -0.017630838
000120 61 ed 07 3d f9 9c d9 bc c6 a7 f8 3b 32 9c 69 bd
       0.033185367 -0.026564108 0.0075883595 -0.057033725
000130 e6 af 84 3d ae 52 64 3c 77 2b 89 3d d9 84 a0 3c
       0.064788625 0.013935728 0.066977434 0.019594597
000140 69 54 85 3d 03 30 2b 3d c0 c7 b2 bc a7 26 41 bd
       0.065102406 0.041793834 -0.021823764 -0.047156002
000150 d0 ed 62 bd 5e e0 28 3d f3 16 0b bd 36 99 80 bd
       -0.055402577 0.0412296 -0.033957433 -0.06279223
000160 9e 05 39 bd ee 1e 52 bc 82 ef bc 3c b1 c0 76 bd
       -0.045171373 -0.012824757 0.023063425 -0.06024236
000170 fe 1c 95 bc cc 21 9c 3d 6b d2 62 bb 99 e2 b8 3b
       -0.018202301 0.07623634 -0.0034610282 0.005642247
000180 61 d7 8d 3d cd 93 65 bd 49 e0 5e bc b9 bd f2 3c
       0.06925846 -0.056049157 -0.013603278 0.029631482
000190 c4 00 0a 3c 4c 92 47 bd 82 76 6b 3d a7 e4 2a bd
       0.008423034 -0.048723504 0.057486065 -0.041721966
0001a0 ee 88 44 3c be c8 16 3d 47 48 48 3d 2d 61 85 3c
       0.011995537 0.036812536 0.048897054 0.016281689
0001b0 0a ff 90 bd e7 3d 7d bd 34 a5 ad ba e6 ce b2 3c
       -0.07079895 -0.061826613 -0.0013248087 0.021827172
0001c0 42 4b 42 3d 71 67 05 3d 0d 79 f9 bc cd 2f 1b bb
       0.047435053 0.032569353 -0.03045323 -0.0023679615
0001d0 20 d4 05 bd f0 fe d6 bc 21 bb 96 3c a8 d1 17 bd
       -0.032673 -0.02624461 0.018399777 -0.03706518
0001e0 32 28 9d bc 26 14 95 3d c2 85 1f 3d 45 85 7c bd
       -0.019184206 0.07279234 0.03894592 -0.061650533
0001f0 66 29 89 3d 28 26 2a 3d 87 cf c6 3b 9d e6 61 bd
       0.06697349 0.041540295 0.0060672197 -0.05515157
000200 a0 40 c6 bc 66 b8 27 3d dc 34 1c bc a6 4c 75 3c
       -0.024200737 0.04094734 -0.009534087 0.014971888
000210 8f 47 e2 bb 03 b6 de 3c f9 19 8e 3d 7e 72 40 bd
       -0.006905503 0.0271864 0.06938548 -0.04698419
000220 f6 02 4b bd 6a 47 0a 3d 8f 5b 54 bb cd 24 ad b9
       -0.04956337 0.033759512 -0.0032403206 -0.0003302455
000230 29 96 0a 3b 2c 0d 60 3d 0a e8 37 bc 4d 0a 03 bd
       0.0021146631 0.05470006 -0.011224756 -0.031992245
000240 d4 ec 8b bc b2 86 1c 3d 18 18 7e 3c f3 7f 91 3d
       -0.017080702 0.038214393 0.015508674 0.071044825
000250 dd a0 09 3d 6b 56 1d bc 39 2e db 3c 92 75 03 3a
       0.033600677 -0.009603123 0.02675544 0.0005014773
000260 7d e9 81 bd 37 6d 7e bd d9 6c 17 bd 51 02 8e bc
       -0.063433625 -0.062115874 -0.03696904 -0.017335089
000270 b8 bd 37 bd c6 8f 27 bb 81 e9 99 3a bf 48 1f 3d
       -0.044858664 -0.0025567873 0.0011742563 0.038887735
000280 d3 fe 9d 37 9c 01 4e 3d 9d f0 d3 3c 70 30 57 bc
       1.883452e-05 0.050294504 0.02587157 -0.013134107
000290 99 b3 1a bd 0f 58 3e bd e6 6b 3f bd 76 71 83 3c
       -0.037768934 -0.046470698 -0.04673376 0.016045313
0002a0 6b 05 27 bc 03 e3 9a bc dd 3a 7d 3b 2e f6 2e 3d
       -0.010194163 -0.018907076 0.0038639822 0.042715244
0002b0 a2 3e 16 3b f9 59 4d 3a 47 ce 18 3d 7f 4e a2 3c
       0.0022925516 0.00078335364 0.037306096 0.01981282
0002c0 e4 c8 0e 3d c1 35 51 bd 05 9a 19 bd 06 67 27 3d
       0.034859553 -0.051076654 -0.0375004 0.040869735
0002d0 63 a7 86 3c ae 18 1e bd d0 dd f9 3b b1 07 7a bd
       0.016437238 -0.038597755 0.007625319 -0.06104249
0002e0 45 c9 83 3c 9c 07 14 bd ea f4 b3 3d 27 03 84 bd
       0.016087184 -0.03614007 0.08786948 -0.06445914
0002f0 d3 a9 5d bc c5 68 42 3d d1 45 fb bb 77 1f 90 bc
       -0.013529259 0.047463197 -0.007668235 -0.017593129
000300 21 d4 27 3d db f5 ba bc 77 2b 26 3c 9e c3 1e 3d
       0.040973786 -0.022822311 0.010142199 0.038760774
000310 2d b9 13 3d 35 2f 17 bd 35 97 a2 3d cf fa e2 3c
       0.03606527 -0.036910255 0.07938997 0.027707485
000320 d6 a0 c8 bc 64 ec 3a bd 6a f4 fd bc 67 d4 29 3d
       -0.024490755 -0.045635596 -0.031000335 0.04146233
000330 19 ad 99 bb f6 a2 76 3a 48 a0 b3 3b f9 db 6b 3d
       -0.0046898243 0.00094084383 0.0054817535 0.05758283
000340 d2 d5 f1 3c 41 22 a7 3c 13 36 69 3d 83 11 05 3d
       0.029520903 0.020402076 0.056936335 0.032487404
000350 31 44 2d 3c 50 04 1d 3d 59 50 63 3d 18 70 99 3c
       0.01057534 0.03833419 0.055496547 0.018730208
000360 1d 2a 13 bd a4 fd cc 3b 0e 66 0c bd f5 0c 33 bd
       -0.035928834 0.0062558223 -0.034277014 -0.04371353
000370 7d 85 79 3a f6 42 6c 3d d4 34 58 3c 6a 04 13 bd
       0.00095184875 0.057681046 0.013196189 -0.03589288
000380 b1 6f 81 bc 88 66 7f bd 90 6d d5 bc d7 ac 0f 3d
       -0.015800329 -0.06235364 -0.02605322 0.035076942
000390 03 54 32 bd 04 ff 16 bc 8b 7f 8d 3d c9 97 c1 3c
       -0.04353715 -0.009216074 0.069090925 0.023631947
0003a0 75 2f 7f 3d 70 13 16 bd 64 ce 97 bc 5a b8 b7 bd
       0.062301118 -0.03663963 -0.018531032 -0.08970709
0003b0 06 ea 77 bc 75 94 35 bd 71 da 6f 3d 23 78 58 bd
       -0.015131479 -0.044331033 0.05855793 -0.052848946
0003c0 19 a0 83 3c dd 0f 2b bb bd b5 2a 3b b3 21 93 bc
       0.016067551 -0.0026101985 0.0026048266 -0.017960405
0003d0 36 87 76 bb 9d 16 53 bc 83 95 3e 3d f0 f8 b7 3c
       -0.0037617213 -0.012883809 0.046529304 0.02245757
0003e0 fc 01 20 bc 86 9b de bc 44 0f ec bc d7 8e 07 bc
       -0.009766098 -0.027173769 -0.028815873 -0.008273802
0003f0 e1 79 8a 3d e2 f2 85 3d 34 21 d3 bc 2c 81 b4 3c
       0.06761528 0.06540467 -0.025772668 0.02203425
